…
nstructions for updating:Please use `rate` instead of `keep_prob`. Rate should be set to `rate = 1 - keep_prob`.</code></pre><p><strong>查看模型架构</strong></p><figure class="highlight python"><table><tr><td class="gutter"><pre><span class="line">1</span><br></pre></td><td class="code"><pre><span class="line">model.summary()</span><br></pre></td></tr></table></figure><pre><code>_________________________________________________________________Layer (type)                 Output Shape              Param #   =================================================================conv2d_1 (Conv2D)            (None, 28, 28, 32)        832       _________________________________________________________________batch_normalization_1 (Batch (None, 28, 28, 32)        128       _________________________________________________________________re_lu_1 (ReLU)               (None, 28, 28, 32)        0         _________________________________________________________________conv2d_2 (Conv2D)            (None, 28, 28, 32)        25632     _________________________________________________________________batch_normalization_2 (Batch (None, 28, 28, 32)        128       _________________________________________________________________re_lu_2 (ReLU)               (None, 28, 28, 32)        0         _________________________________________________________________max_pooling2d_1 (MaxPooling2 (None, 14, 14, 32)        0         _________________________________________________________________dropout_1 (Dropout)          (None, 14, 14, 32)        0         _________________________________________________________________conv2d_3 (Conv2D)            (None, 14, 14, 32)        25632     _________________________________________________________________batch_normalization_3 (Batch (None, 14, 14, 32)        128       _________________________________________________________________re_lu_3 (ReLU)               (None, 14, 14, 32)        0         _________________________________________________________________max_pooling2d_2 (MaxPooling2 (None, 7, 7, 32)          0         _________________________________________________________________dropout_2 (Dropout)          (None, 7, 7, 32)          0         _________________________________________________________________conv2d_4 (Conv2D)            (None, 7, 7, 64)          51264     _________________________________________________________________batch_normalization_4 (Batch (None, 7, 7, 64)          256       _________________________________________________________________re_lu_4 (ReLU)               (None, 7, 7, 64)          0         _________________________________________________________________max_pooling2d_3 (MaxPooling2 (None, 3, 3, 64)          0         _________________________________________________________________dropout_3 (Dropout)          (None, 3, 3, 64)          0         _________________________________________________________________conv2d_5 (Conv2D)            (None, 3, 3, 64)          102464    _________________________________________________________________batch_normalization_5 (Batch (None, 3, 3, 64)          256       _________________________________________________________________re_lu_5 (ReLU)               (None, 3, 3, 64)          0         _________________________________________________________________max_pooling2d_4 (MaxPooling2 (None, 1, 1, 64)          0         _________________________________________________________________dropout_4 (Dropout)          (None, 1, 1, 64)          0         _________________________________________________________________flatten_1 (Flatten)          (None, 64)                0         _________________________________________________________________dropout_5 (Dropout)          (None, 64)                0         _________________________________________________________________dense_1 (Dense)              (None, 128)               8320      _________________________________________________________________dropout_6 (Dropout)          (None, 128)               0         _________________________________________________________________dense_2 (Dense)              (None, 10)                1290      =================================================================Total params: 216,330Trainable params: 215,882Non-trainable params: 448_________________________________________________________________</code></pre><p>The list above is the structure of my CNN model. It goes:</p><ul><li>(Conv-ReLU-BatchNormalization-MaxPooling-Dropout) x 4;</li><li><p>3 fully-connected(dense) layers with 1 dro
…
