…
for updating: Colocations handled automatically by placer. WARNING:tensorflow:From G:\Anaconda\lib\site-packages\keras\backend\tensorflow_backend.py:3445: calling dropout (from tensorflow.python.ops.nn_ops) with keep_prob is deprecated and will be removed in a future version. Instructions for updating: Please use `rate` instead of `keep_prob`. Rate should be set to `rate = 1 - keep_prob`. 查看模型架构 1model.summary() _________________________________________________________________ Layer (type) Output Shape Param # ================================================================= conv2d_1 (Conv2D) (None, 28, 28, 32) 832 _________________________________________________________________ batch_normalization_1 (Batch (None, 28, 28, 32) 128 _________________________________________________________________ re_lu_1 (ReLU) (None, 28, 28, 32) 0 _________________________________________________________________ conv2d_2 (Conv2D) (None, 28, 28, 32) 25632 _________________________________________________________________ batch_normalization_2 (Batch (None, 28, 28, 32) 128 _________________________________________________________________ re_lu_2 (ReLU) (None, 28, 28, 32) 0 _________________________________________________________________ max_pooling2d_1 (MaxPooling2 (None, 14, 14, 32) 0 _________________________________________________________________ dropout_1 (Dropout) (None, 14, 14, 32) 0 _________________________________________________________________ conv2d_3 (Conv2D) (None, 14, 14, 32) 25632 _________________________________________________________________ batch_normalization_3 (Batch (None, 14, 14, 32) 128 _________________________________________________________________ re_lu_3 (ReLU) (None, 14, 14, 32) 0 _________________________________________________________________ max_pooling2d_2 (MaxPooling2 (None, 7, 7, 32) 0 _________________________________________________________________ dropout_2 (Dropout) (None, 7, 7, 32) 0 _________________________________________________________________ conv2d_4 (Conv2D) (None, 7, 7, 64) 51264 _________________________________________________________________ batch_normalization_4 (Batch (None, 7, 7, 64) 256 _________________________________________________________________ re_lu_4 (ReLU) (None, 7, 7, 64) 0 _________________________________________________________________ max_pooling2d_3 (MaxPooling2 (None, 3, 3, 64) 0 _________________________________________________________________ dropout_3 (Dropout) (None, 3, 3, 64) 0 _________________________________________________________________ conv2d_5 (Conv2D) (None, 3, 3, 64) 102464 _________________________________________________________________ batch_normalization_5 (Batch (None, 3, 3, 64) 256 _________________________________________________________________ re_lu_5 (ReLU) (None, 3, 3, 64) 0 _________________________________________________________________ max_pooling2d_4 (MaxPooling2 (None, 1, 1, 64) 0 _________________________________________________________________ dropout_4 (Dropout) (None, 1, 1, 64) 0 _________________________________________________________________ flatten_1 (Flatten) (None, 64) 0 _________________________________________________________________ dropout_5 (Dropout) (None, 64) 0 _________________________________________________________________ dense_1 (Dense) (None, 128) 8320 _________________________________________________________________ dropout_6 (Dropout) (None, 128) 0 _________________________________________________________________ dense_2 (Dense) (None, 10) 1290 ================================================================= Total params: 216,330 Trainable params: 215,882 Non-trainable params: 448 _________________________________________________________________ The list above is the structure of my CNN model. It goes: (Conv-ReLU-BatchNormalization-MaxPooling-Dropout) x 4; 3 fully-connected(dense) layers with 1 dropout layer. Dense(64)-Dense(128)-Dropo
…
